models/ACYCLIC/model_testset_0.ds.pth (torch_old, 1262 bytes, 4 tensors)

fc1.weight f4 [4, 12]
0	0x3f449be7	0.7680039
1	0x3cff92e6	0.031197976
2	0xbb6d2869	-0.0036187416
3	0xbe80efe4	-0.25183022
4	0x0ecaef74	5.002743e-30
5	0x3ed7e659	0.4216793
6	0x40826018	4.07423
7	0xbfd539ce	-1.6658266
8	0x000003e5	1.397e-42
9	0xbdcf730d	-0.10129366
10	0x3fa44a43	1.2835163
11	0x3eaa50e7	0.3326485
12	0x3f04a01e	0.5180682
13	0xbefbfce3	-0.49216375
14	0xbecfc18f	-0.4057736
15	0xbf13c3d6	-0.57720697
16	0x9c11eddb	-4.8283897e-22
17	0x3de466a3	0.11152389
18	0x406de84d	3.7173035
19	0xbfd05201	-1.6275026
20	0x00000051	1.14e-43
21	0x3e19f8d9	0.15036334
22	0x3fb271ad	1.3940941
23	0x3f0728c0	0.52796555
24	0xbe492972	-0.19644716
25	0x3f1d07eb	0.61340207
26	0xbcbc5026	-0.022987437
27	0x3e0e4178	0.13892162
28	0x1d11db3c	1.9303932e-21
29	0xbeb6d042	-0.35705763
30	0xbe9ae658	-0.30253863
31	0xbee19410	-0.44058275
32	0x86d3af98	-7.962739e-35
33	0xbcd96000	-0.026535034
34	0xbef1c193	-0.47217998
35	0xbebdc0e4	-0.37061226
36	0x3f3db6e8	0.7410722
37	0xbecb7d50	-0.39744043
38	0xbec0e700	-0.3767624
39	0xbf1508a7	-0.5821633
40	0x9a0e3f81	-2.941621e-23
41	0x3eb40b71	0.3516498
42	0x4083aa5b	4.1145453
43	0xbff9c8a0	-1.9514351
44	0x94771c40	-1.24758845e-26
45	0x3e2c4176	0.16821846
46	0x3fb2ec77	1.3978413
47	0x3da7b085	0.08187965

fc2.weight f4 [1, 4]
0	0xbfaafdf2	-1.3358748
1	0xbf7dc427	-0.9912743
2	0x3f9d5b98	1.2293577
3	0xbf9dcc3d	-1.2327954

fc1Root.weight f4 [4, 12]
0	0x3eeceb30	0.46273184
1	0x3db3872f	0.087660186
2	0xbd0a5498	-0.03377208
3	0xbdb8e9e4	-0.09028986
4	0x3f62618f	0.8843011
5	0x3f984b49	1.1897975
6	0xc02e89f7	-2.7271707
7	0x401ed2b1	2.4816096
8	0x00001520	7.578e-42
9	0xbed6bfda	-0.41943246
10	0x3f29f5e6	0.66390836
11	0x3eaf8f7d	0.3428916
12	0xbcf045ea	-0.029330213
13	0x3e7117d0	0.2354424
14	0x3e67dac0	0.2264204
15	0x3ec5fc31	0.3866897
16	0x3e8515cd	0.25993195
17	0xbed53822	-0.41644388
18	0xbe64b2e7	-0.22333871
19	0xbea81476	-0.3282811
20	0x0000186e	8.764e-42
21	0xbe35361f	-0.17696427
22	0x3d94ff34	0.07275239
23	0xbed2df62	-0.41186053
24	0x3d0e7e22	0.03478826
25	0x3ef37b63	0.47555074
26	0x3ec257e3	0.37957677
27	0x3e5bcf44	0.21465784
28	0x3ebd62bd	0.36989394
29	0xbe303571	-0.17207886
30	0xbe84e795	-0.25957933
31	0xbd8a5d13	-0.06756034
32	0x0000114e	6.208e-42
33	0x3dbd49bf	0.092425816
34	0xbdfe0eca	-0.124051645
35	0xbe032201	-0.1280594
36	0x3eb6e27c	0.3571967
37	0xbfa92266	-1.3213623
38	0xbfb1b380	-1.3882904
39	0xbfab8513	-1.3399986
40	0xbf97ad2f	-1.1849726
41	0xbebee633	-0.37285003
42	0x4091d8ae	4.5577
43	0xc05d2178	-3.4551678
44	0x8000122b	-6.517e-42
45	0x3d0015e3	0.031270873
46	0x3ea612b5	0.32436147
47	0x3ea13d09	0.3149188

fc2Root.weight f4 [1, 4]
0	0xbf991e43	-1.196236
1	0xbf588238	-0.845737
2	0xbf5beeeb	-0.85911435
3	0x3fc3aefe	1.5287778
