models/ACYCLIC/model_testset_0.ds-Dvalue12-maxMValue4-Saved.pth (torch_old, 1262 bytes, 4 tensors)

fc1.weight f4 [4, 12]
000000 64 50 03 be 97 28 d9 3e 30 15 b0 bc 6a 9d a2 3d
       -0.12823635 0.4241378 -0.021494478 0.079401806
000010 24 8d 06 be 17 a9 90 be a2 f4 04 3c 63 90 9b 3d
       -0.13139778 -0.28254005 0.008114966 0.07595899
000020 d8 9d 84 3d ce 99 ed bd a8 e9 89 bc 2a 40 00 be
       0.06475419 -0.116016015 -0.016835049 -0.12524477
000030 f2 b9 df bd 5b 40 55 3d 10 a6 e8 3d fb 40 ec 3d
       -0.10924138 0.052063327 0.11359799 0.115358315
000040 6b a2 27 3e 98 8e 1d be 33 26 bc be 9a 03 52 3d
       0.16370551 -0.15386426 -0.36747894 0.051272966
000050 0b 9b ed 3d ed 3c 9b bd 6a 90 15 be 69 2f 4f be
       0.11601838 -0.0757998 -0.14605871 -0.2023293
000060 ac fc 7b 3e 67 e5 ad be ad bb cc bd 14 ad 3d 3e
       0.24608105 -0.33964083 -0.09996734 0.18523055
000070 06 20 92 bd 00 99 75 bd 4b 65 a9 bd d1 66 aa 3e
       -0.07135014 -0.059960365 -0.08271273 0.33281568
000080 a9 11 38 bd 8b 92 11 be 0e 48 dc 3e 20 47 56 3e
       -0.044938717 -0.14216058 0.43023723 0.2092557
000090 a4 1a 8a 3d 5d 8c b7 bd d2 85 f2 3d 18 9b 8f bd
       0.067433625 -0.08962319 0.118419304 -0.07012004
0000a0 5d 12 ab bd 03 1f 9c 3e e6 97 4e 3e dd 38 86 bd
       -0.08353112 0.3049241 0.20175132 -0.065538146
0000b0 90 2a 54 3d 1b 97 18 3d 16 db 83 3e 44 7a 0d 3c
       0.051798403 0.03725348 0.25753087 0.008635107

fc2.weight f4 [1, 4]
000000 e6 fb c4 3e 88 05 70 3e 1c 22 4c be c1 5b f4 bd
       0.38473433 0.2343961 -0.19934887 -0.11931563

fc1Root.weight f4 [4, 12]
000000 49 b2 8b be c2 d6 04 3e 4a 90 ee 3d 74 2a b1 3e
       -0.27284458 0.12972549 0.11648615 0.34602702
000010 c2 68 98 3e b5 69 8a be 24 ef 25 be 94 52 15 3d
       0.29767424 -0.27033773 -0.16204506 0.036455706
000020 70 02 1f 3e 5f 27 11 3c 42 a0 4d 3d 08 ad 57 be
       0.15528274 0.008859484 0.050201662 -0.210621
000030 bd 0b c4 be 66 59 73 3e 8e 3d 6c 3e ec ac 9e 3d
       -0.38290206 0.23764572 0.23070356 0.07747826
000040 ba a2 1a bd c9 af 88 be fc 2a fa bd fc 8c 2a 3e
       -0.037752844 -0.26696613 -0.1221523 0.16655344
000050 34 72 e2 3d 5d 2d 73 be b1 8b 50 be 8d 5a 75 bc
       0.11056939 -0.23747773 -0.20365788 -0.014975202
000060 f9 e5 57 bd fe 3b 70 bd d8 f7 9d 3e 2b eb df bd
       -0.052709553 -0.058650963 0.30853152 -0.109335266
000070 b4 be 26 3e e0 27 31 be 0c 0b 57 ba 5c 48 8b be
       0.16283685 -0.17300367 -0.0008203245 -0.27203643
000080 7c d3 13 3e a7 8a 0e 3e 48 f1 c1 be 62 15 5d 3c
       0.14436144 0.13920079 -0.37879395 0.013493868
000090 8a b2 bc be 63 f4 1e be d0 44 ad bc eb d8 32 bd
       -0.36854964 -0.15522914 -0.021150976 -0.0436639
0000a0 9c e4 a2 3e 32 9e 3d be e9 6f f6 3d 5a 8b 22 3e
       0.3181504 -0.18517378 0.12033064 0.15873471
0000b0 f9 29 e8 3d 7f 23 9e be a2 82 9b be b2 2c 05 3e
       0.11336131 -0.30886456 -0.30373102 0.13005331

fc2Root.weight f4 [1, 4]
000000 e4 2a f3 be cc 1e a0 be 89 6e e6 be 6e 95 9c be
       -0.4749366 -0.31273496 -0.45006207 -0.30582756
