models/PAH/model_testset_0.ds-Dvalue12-maxMValue4-Saved.pth (torch_old, 1279 bytes, 4 tensors)

fc1.weight f4 [4, 12]
-0.44777066 0.191566 0.1848645 0.43680215 0.42557487 -0.82661957 0.50465685 0.16387974
0.4763703 -0.30505025 -0.13412239 -0.66153854 0.43198866 -0.22539964 -0.8180399 -0.09048867
0.56385106 0.5012364 0.25201318 -0.49144277 -0.07555616 1.0264747 -0.7754287 -0.96749204
0.33686444 -0.9148182 0.049816232 -0.1560249 -0.53108156 0.35059437 0.01993656 -0.3440737
-0.7110051 1.0475504 0.7627889 -0.9868325 0.65182626 -0.8636543 0.07075835 -0.024426628
-0.12447502 -0.014449443 -0.044531558 -0.46009138 -0.5293192 1.0224895 0.76020634 -0.9763525
00000000: 3242 e5be e129 443e 1f4d 3d3e 88a4 df3e
00000010: f3e4 d93e 579d 53bf 3131 013f 17d0 273e
00000020: cfe6 f33e 8c2f 9cbe 6157 09be 975a 29bf
00000030: 9e2d dd3e 2acf 66be 106b 51bf 2052 b9bd
00000040: 8b58 103f 0751 003f df07 813e 639e fbbe
00000050: 30bd 9abd 8663 833f 7f82 46bf 8fad 77bf
00000060: 7f79 ac3e 8731 6abf 1b0c 4c3d fec4 1fbe
00000070: f6f4 07bf 1b81 b33e ff51 a33c 6e2a b0be
00000080: 6e04 36bf 2216 863f 2246 433f 0ea1 7cbf
00000090: 16de 263f 7318 5dbf c1e9 903d 5a1a c8bc
000000a0: c2ec febd 5bbd 6cbc b966 36bd 1991 ebbe
000000b0: 7781 07bf f0e0 823f e29c 423f 3df2 79bf

fc2.weight f4 [1, 4]
-1.2732682 1.3695458 1.0983527 1.1563041
00000000: 74fa a2bf 474d af3f d296 8c3f c601 943f

fc1Root.weight f4 [4, 12]
0.23633923 1.079574 0.13259923 0.05159753 -3.3693655 -0.45145214 -0.20060107 -0.18528518
-0.6224291 -0.06655563 0.3268906 -0.22171631 0.4872745 -2.4547439 0.13631207 0.20649473
5.0790286 -0.0321301 0.08901573 0.35239005 -0.024407199 0.1436957 -0.008064546 -0.02539859
-0.31757423 0.5340584 -0.77644485 0.19559489 -0.6654298 -0.5768256 0.19032198 0.14470589
0.17263511 -0.13688459 0.3406479 0.07687132 -0.2252566 1.3894385 0.17933212 0.07129213
-4.26544 0.24057043 -0.8244338 -0.17969897 -0.09327232 -0.40472 0.39200935 0.40408757
00000000: e902 723e 7b2f 8a3f 18c8 073e ee57 533d
00000010: afa3 57c0 bc24 e7be 5e6a 4dbe 66bb 3dbe
00000020: 8357 1fbf 514e 88bd 345e a73e 9a09 63be
00000030: 0b7c f93e 861a 1dc0 6495 0b3e 5b73 533e
00000040: 6787 a240 da9a 03bd e14d b63d 786c b43e
00000050: 9bf1 c7bc f724 133e 2821 04bc b410 d0bc
00000060: 1799 a2be 0db8 083f 17c5 46bf 074a 483e
00000070: 9b59 2abf d8aa 13bf c4e3 423e c82d 143e
00000080: 42c7 303e 792b 0cbe 6769 ae3e b66e 9d3d
00000090: aba9 66be 1fd9 b13f d7a2 373e 9c01 923d
000000a0: 7c7e 88c0 1858 763e 180e 53bf 0203 38be
000000b0: 8f05 bfbd 7637 cfbe 73b5 c83e 91e4 ce3e

fc2Root.weight f4 [1, 4]
-0.98614156 1.2270201 -1.0808699 -0.82808226
00000000: c673 7cbf ff0e 9d3f f259 8abf 33fd 53bf
