models/PAH/model_testset_0.ds-Dvalue12-maxMValue4-Saved.pth (torch_old, 1279 bytes, 4 tensors)

fc1.weight f4 [4, 12]
000000 e0 e5 9d 3d 21 b4 5f bd da 8f 8d 3e a1 c6 58 be
       0.07709861 -0.054615144 0.27648813 -0.21169521
000010 bf 74 d9 be 93 a5 1f 3e 32 ad 29 3e 05 c5 ec 3e
       -0.42471883 0.15590505 0.16569975 0.46244064
000020 ca 44 4f 3f d4 64 29 be b0 c0 ce be 50 37 cc 3d
       0.8096434 -0.16542369 -0.40381384 0.099714875
000030 9d ae 77 bc 53 b5 92 be 46 cf 48 be 0b 71 c4 be
       -0.015117315 -0.28653964 -0.19610319 -0.38367495
000040 d8 26 d1 be 47 fc 32 be 1b 91 84 bf 68 03 c0 be
       -0.40849948 -0.17479049 -1.0356783 -0.375026
000050 87 15 0e 3e 36 46 cb bd b5 10 18 3e 79 33 a7 3d
       0.138754 -0.09925501 0.14850123 0.081641145
000060 8a 3a 3d 3e 9e e2 16 3e 64 2c 51 bf 0d 76 96 bc
       0.18479362 0.14734885 -0.8170836 -0.018366838
000070 d6 aa 1e bf 9f 30 64 3e 79 5a 72 3e 6d 3a 82 be
       -0.61979425 0.22284172 0.23667325 -0.254352
000080 a7 43 2a bd 27 9e 3e 3d 54 b2 54 3e da 77 e6 be
       -0.041568425 0.046537545 0.20771152 -0.45013314
000090 8c 72 54 3e 53 38 33 3d 2b e7 dc 3e 77 d3 53 bd
       0.20746821 0.043754887 0.43145117 -0.05171534
0000a0 47 9f d8 be 42 05 71 be 44 f4 85 bd 24 21 88 be
       -0.4230902 -0.23537162 -0.065407306 -0.26587784
0000b0 9f f0 2c be c1 c5 0b be d3 5d 87 be 42 bb 8b bd
       -0.16888665 -0.13649656 -0.2643877 -0.06822826

fc2.weight f4 [1, 4]
000000 dd cd a9 3d b7 18 63 3f ef d6 c7 bd bf ea 16 bf
       0.082912184 0.88709587 -0.09757792 -0.58951944

fc1Root.weight f4 [4, 12]
000000 59 bd 28 bf a0 4b 80 bf a2 95 ca be 47 98 06 bf
       -0.6591392 -1.0023079 -0.39567286 -0.52576107
000010 09 23 33 3e 31 fe 1b 3b 79 21 1a bd 90 f8 09 3e
       0.17493834 0.0023802633 -0.03762958 0.13473725
000020 60 2b ed 3e f2 9d c4 3e 87 2a c0 3e a6 2c 71 3e
       0.46322155 0.38401753 0.37532446 0.23552188
000030 f6 c9 20 3e 98 76 0c bf 6b 1f 02 bc 3e 46 39 bf
       0.15702042 -0.5486846 -0.007942061 -0.72372806
000040 81 c6 1e 3e b5 b4 50 be cd 88 0e be b2 8f 41 3e
       0.1550541 -0.20381434 -0.13919373 0.18902472
000050 ae 8e 1c bf 06 29 ac 3d 3f 7c d5 be bb 24 14 3f
       -0.6115521 0.08406262 -0.41696355 0.57868546
000060 0f 07 ea bd 6d 12 7c be a0 43 bd 3e 2d 0b 4c bf
       -0.114271276 -0.24616404 0.36965656 -0.7970455
000070 e3 d8 4c bd 8e 1f ec bd 1f 8b 2e bf 0f e7 da be
       -0.050011527 -0.11529456 -0.6818103 -0.4275441
000080 48 a5 eb be 16 97 a0 bf 67 b2 43 3f 5f fd 0d 3e
       -0.46024537 -1.2546108 0.76444095 0.13866185
000090 1f 3a 66 3e ee 2d c9 3e 5f 22 20 3d 64 4d 2f 3f
       0.22483109 0.39292854 0.03909528 0.68477464
0000a0 f5 1f 9c 3d 79 9d a5 be 54 a0 81 be de 34 d7 3e
       0.07623283 -0.32346705 -0.25317633 0.42032522
0000b0 2b 63 3a bf ae 7f 0b bd b3 c8 e9 3e 6b b4 07 3f
       -0.7280757 -0.03405731 0.45660934 0.5300967

fc2Root.weight f4 [1, 4]
000000 d7 6b 2f be 7b 56 bb be 63 c0 c2 3b 9b 0c 6b bf
       -0.17130981 -0.36589417 0.0059433444 -0.9181611
