models/modelloXXX.pth (torch_old, 1262 bytes, 4 tensors)

fc1.weight f4 [4, 12]
000000 2e 2e 53 be 76 12 f6 be 89 2b 29 be 34 6d 0d bd
       -0.20623085 -0.4806096 -0.16520514 -0.034527972
000010 c5 00 00 80 55 98 43 be c0 c5 34 27 dd 01 00 00
       -2.76e-43 -0.19101079 2.5087219e-15 6.68e-43
000020 07 04 00 80 03 dd 13 bc c5 7a 00 be a2 a4 8c bd
       -1.445e-42 -0.009024861 -0.12546833 -0.06867339
000030 90 03 2f be cc ef e2 be 5f d9 25 be b3 09 08 bd
       -0.17091203 -0.44323575 -0.16196202 -0.033212375
000040 52 00 00 80 3c f0 2a be bc 01 00 80 e2 02 00 00
       -1.15e-43 -0.16693205 -6.22e-43 1.034e-42
000050 d3 01 00 00 24 29 0e bc a4 a3 f2 bd c7 5e 65 bd
       6.54e-43 -0.008676801 -0.11847618 -0.05599859
000060 b5 ec 1a 3f ba 19 1e 3f 9e 3b 3b 3f 34 e0 7e 3f
       0.60517436 0.61758006 0.73137844 0.99560857
000070 3e 03 00 80 bf 4d 3f 3f 1a 01 00 80 1b 02 00 00
       -1.163e-42 0.74728006 -3.95e-43 7.55e-43
000080 79 02 00 80 0c 3c 87 3e 42 1f 62 3e 28 d2 63 3e
       -8.87e-43 0.26413 0.22082236 0.22248137
000090 5d ee 75 be 3c 13 44 bf f1 91 82 3e da d0 6d bd
       -0.2401671 -0.7659185 0.2550197 -0.058060504
0000a0 e6 fa 0f a9 93 b6 82 be 7f 02 00 00 97 01 00 00
       -3.1969998e-14 -0.25529918 8.95e-43 5.7e-43
0000b0 1b 02 00 00 71 14 7a bc 79 b6 47 be 10 64 40 be
       7.55e-43 -0.015263663 -0.19503202 -0.18788171

fc2.weight f4 [1, 4]
000000 5d 39 1a bf 81 a4 ee be 9a 25 be 3f 31 0c 3d bf
       -0.6024378 -0.46609882 1.4855225 -0.7384673

fc1Root.weight f4 [4, 12]
000000 96 f6 c1 40 2e 2b 82 bf 78 e4 88 be df d1 46 bf
       6.061351 -1.0169427 -0.26736808 -0.7766399
000010 3e 4d f1 be 2b 11 c3 40 dc 1e 00 00 0a 01 00 00
       -0.47129244 6.0958457 1.107e-41 3.73e-43
000020 68 0c 00 00 05 c7 a8 3e ed a4 32 bf 52 b5 fc be
       4.45e-42 0.3296434 -0.69782907 -0.49357086
000030 cf 51 f4 40 ec ed 51 c0 12 45 8a be 8f 79 24 be
       7.6349864 -3.2801466 -0.2700582 -0.16061996
000040 5b 91 c8 bc b2 cf f1 40 34 04 00 00 46 0f 00 00
       -0.024483373 7.5566034 1.508e-42 5.479e-42
000050 81 11 00 00 7b fe 71 3f 8c 00 83 be 24 b9 b6 3f
       6.279e-42 0.9452893 -0.25586355 1.427525
000060 e1 db 08 c0 60 e1 63 3f b4 ca 54 3f 88 c3 6b 3f
       -2.1384203 0.8901577 0.831218 0.9209523
000070 0d 81 85 3f 5c 64 07 c0 2a 2c 00 80 9f 1f 00 00
       1.0430008 -2.1155005 -1.5843e-41 1.1344e-41
000080 99 0c 00 00 aa 3d 90 bf dc 93 82 bf a1 bc 51 c0
       4.519e-42 -1.1268818 -1.0201373 -3.277138
000090 58 06 14 c0 df 82 7a 3f 3d 8e 85 3f ff a9 80 3f
       -2.3128872 0.97855943 1.0434033 1.0051879
0000a0 9a 10 59 3f cf 95 16 c0 40 2c 00 00 0a 12 00 00
       0.84790957 -2.3528936 1.5874e-41 6.471e-42
0000b0 31 05 00 80 8f 8d 98 bf 82 4a 91 bf 12 12 61 c0
       -1.862e-42 -1.19182 -1.1350863 -3.516728

fc2Root.weight f4 [1, 4]
000000 45 04 b3 c0 03 a2 a8 c0 ea 44 07 40 0e 56 0e 40
       -5.594271 -5.269777 2.1135812 2.2240024
